model_best.ckpt (torch_old, 5701 bytes, 10 tensors)

encoder.weight_ih_l0 f4 [40, 5]
000000 27 0d 8a 3e 7e b3 3c 3e 31 05 0e be 89 f4 90 3e
       0.2696316 0.18427846 -0.13869168 0.28311566
000010 68 f4 2b bd 10 bb 2e 3d 58 be a9 3d 52 7c 4e 3e
       -0.04198113 0.042658865 0.08288258 0.20164612
000020 98 2a 01 bd 07 7f 98 be 90 39 d6 3c aa f4 33 3e
       -0.03153476 -0.29784414 0.026150495 0.175738
000030 58 22 3c bd 70 1b 8d 3c 9e 56 d9 bd 84 69 93 3d
       -0.04593119 0.017224997 -0.10612224 0.0719786
000040 34 94 99 3d be 86 1e 3e de 30 a9 bd da d0 13 be
       0.07498971 0.15481088 -0.08261274 -0.1443514
000050 7a b7 6d 3e 5e f7 6e 3e 20 f5 02 be 78 30 10 bd
       0.23214522 0.2333655 -0.1278882 -0.035202473
000060 9e 00 8f bd 6a a7 2b be 1a 2b 9e bd ea a0 c1 bc
       -0.069825396 -0.16763082 -0.07723065 -0.0236363
000070 bf 19 38 be f4 5d af 3d b3 b2 14 be 30 68 ef bc
       -0.17978571 0.08562842 -0.14521293 -0.029224485
000080 c4 a7 92 be df 08 88 3e 0d 18 9e be 3a a1 8c be
       -0.2864362 0.26569268 -0.30877724 -0.27466756
000090 24 21 69 be a0 03 88 bc 24 69 54 be 47 85 93 be
       -0.22766548 -0.016603291 -0.20743233 -0.2881262
0000a0 32 4a 91 be 0e e7 1c be 00 e2 55 3d 83 70 92 3e
       -0.2837692 -0.15322515 0.052217484 0.28601465
0000b0 fe 6f 46 be 98 f2 84 bd fb 8a 88 3e af 98 87 be
       -0.19378659 -0.064915836 0.26668534 -0.26483676
0000c0 06 04 86 be 20 2d e3 bc 33 c3 3c be e4 62 95 3d
       -0.26174945 -0.027731478 -0.18433838 0.072942525
0000d0 f4 d0 af 3d 22 ed 59 3e 99 6f 90 3e 62 ac 64 3e
       0.085847765 0.21281865 0.28210142 0.22331384
0000e0 c9 9f 8c 3e 9e 02 3d be d8 0a 12 bd ed 9b 50 be
       0.27465656 -0.1845803 -0.035654873 -0.20371981
0000f0 c1 ed 91 3c 25 18 8e bd 7e 3d d1 3d dc 52 14 be
       0.017813565 -0.06938199 0.10216807 -0.14484733
000100 79 aa cd bd f0 6c e4 bc ae 30 a1 bd aa b8 45 3e
       -0.10042281 -0.027883977 -0.07870613 0.19308725
000110 80 24 00 be 00 dc 99 3d 07 54 91 3e 92 30 7a 3e
       -0.12513924 0.07512665 0.2838442 0.2443259
000120 a8 ff 84 bd 5b 0e 8d 3e ba af 51 3e d0 e8 d4 3d
       -0.06494075 0.27550015 0.2047719 0.10395968
000130 a8 ec 93 be c0 d4 83 3c 4c 5c e1 3d 20 cb 4c 3c
       -0.28891492 0.016092658 0.11003932 0.012499601
000140 2d b9 85 be 12 92 52 be f2 eb cb bd 41 a5 8c 3e
       -0.2611784 -0.20563534 -0.09957112 0.2746983
000150 da 02 0a be b8 56 1d 3d 00 82 81 bb 00 2e 80 3d
       -0.1347765 0.03841278 -0.003952265 0.06258774
000160 c0 c7 5b be 48 6c 9e be 42 02 13 be e0 2c 3c bd
       -0.21462917 -0.30941987 -0.1435633 -0.045941234
000170 13 c3 9e 3e 48 e9 cf 3d c0 2f f5 bb ce 5f 56 be
       0.31008205 0.10151917 -0.007482499 -0.20934984
000180 e5 dc 90 be 58 50 5c bd 30 c6 44 3d db 15 86 3e
       -0.2829353 -0.05378756 0.04804057 0.2618855
000190 6d e8 82 3e 74 70 98 be f4 80 c0 bd 40 74 31 3e
       0.25567952 -0.29773295 -0.09399596 0.17329502
0001a0 31 fe a0 be 62 85 3f 3e dc 1f 83 bd 20 f1 3a bc
       -0.31443933 0.18703225 -0.06402561 -0.011410028
0001b0 fb a7 8e 3e 28 ec fc 3d a6 5e 23 be 7a 08 ed bd
       0.27862534 0.12349731 -0.15954074 -0.115738824
0001c0 b2 0d 1a 3e b4 85 9d 3e a7 d1 b0 3a d8 98 23 3d
       0.15044287 0.3076607 0.0013490216 0.039940685
0001d0 66 e5 3e 3e 2c d8 f6 bd 14 31 77 be 31 03 95 3e
       0.18642196 -0.1205295 -0.24139816 0.29103997
0001e0 63 6f 2f be 34 54 12 3e 29 19 a1 be b6 7d 47 3e
       -0.17132334 0.14289933 -0.31464508 0.19481549
0001f0 24 0e c6 3d 5a e1 98 be cf ff 33 be 38 7a 34 be
       0.09670666 -0.2985943 -0.17578052 -0.17624748
000200 4e 04 7f be dc 30 d9 3d 07 99 58 be bf 92 92 3e
       -0.24903986 0.10605022 -0.21152125 0.28627583
000210 8c 4d ee 3d 43 92 99 3e 5c 61 2b be 30 45 92 3c
       0.11635885 0.299944 -0.16736358 0.017855257
000220 80 fd 8e 3c 48 aa 8a 3d 5e 8c 53 3e dd 28 8a be
       0.017454863 0.0677076 0.20659015 -0.269843
000230 f6 74 00 be 80 7e 3d bc 2a 06 73 be 80 7c 5c be
       -0.12544617 -0.0115658045 -0.2373282 -0.21531868
000240 0b 7b 8c be 30 b0 f2 3d 74 10 b7 3d de 4d 97 be
       -0.27437624 0.11850011 0.08938685 -0.29551595
000250 d8 74 a1 3d 6e 70 0e be 66 44 1d be de 70 87 be
       0.07883614 -0.13910076 -0.15358123 -0.26453298
000260 e4 6f bf bd 56 9b b2 bd 48 72 17 bd 7d 1d 14 be
       -0.09347513 -0.08721034 -0.03697422 -0.14464374
000270 70 53 ff 3c c0 b3 f1 3d f8 17 8a bd a0 2c 2f bc
       0.031167716 0.11801863 -0.06742853 -0.010691792
000280 88 25 8d be 3a e4 7a 3e 80 f0 37 bc 3c d2 ad 3d
       -0.27567697 0.24501124 -0.011226773 0.08487365
000290 db a4 8a be e8 32 4d be 4c 41 f7 3d 8a 62 66 3e
       -0.270789 -0.2003895 0.12073001 0.22498527
0002a0 66 d4 8d bd aa d3 c3 bd 15 86 94 3e 97 b8 99 be
       -0.069252774 -0.09561856 0.29008546 -0.30023643
0002b0 58 b1 4f bd ee 58 33 3e 26 e3 1f 3e 4e e0 70 be
       -0.050706238 0.17514393 0.15613994 -0.23523065
0002c0 24 d8 d7 3d 38 5b 3e 3d be 59 63 3e 61 21 99 3e
       0.105392724 0.04647371 0.22202203 0.2990828
0002d0 12 21 57 3e 6a 9e af bd 90 2c 3a be f5 61 6c be
       0.21008709 -0.08575137 -0.18181062 -0.23084243
0002e0 90 4f b6 bd 20 19 70 3d d4 79 13 be 79 ad 99 3e
       -0.08901894 0.05861771 -0.14401942 0.30015162
0002f0 02 cc 57 3e a5 f1 9d 3e b3 2c 40 be 31 9b 8f be
       0.21073917 0.30848423 -0.18767051 -0.2804809
000300 e8 8c 4d 3d c6 9f 7d 3e b0 9c b2 bc 26 c3 6a 3e
       0.050183207 0.2476798 -0.02180323 0.22926006
000310 79 2f 9f be b8 00 0b bd 5d f7 9f 3e ef bf 6d be
       -0.31090906 -0.033936232 0.3124341 -0.23217748

encoder.weight_hh_l0 f4 [40, 10]
000000 e2 2d b3 bd 86 f7 9f be 00 60 4d 3c 98 48 50 bd
       -0.08748986 -0.31243533 0.012535095 -0.05085048
000010 ef b2 17 be 31 d5 85 3e 88 88 76 3d 09 b4 87 3e
       -0.14814351 0.26139215 0.0601888 0.26504543
000020 fa ab 96 bd 80 3f 87 be e8 9b 15 be 1c fb 75 be
       -0.07357021 -0.26415634 -0.14610255 -0.24021572
000030 04 38 df 3d e8 6e 07 3d 9c f8 08 3e 4e 11 70 be
       0.10899356 0.033064753 0.13376087 -0.23444101
000040 b8 9d 8e bd cc 4c 28 3e b0 f4 3c bd 12 88 96 bd
       -0.06963676 0.16435546 -0.04613179 -0.07350172
000050 68 b4 48 3d f2 49 42 3e 00 7e 88 ba 3a ef 86 be
       0.049000174 0.1897352 -0.0010413527 -0.2635439
000060 18 4c 63 bd 38 65 93 be cb 53 35 be 5c 1c 67 be
       -0.05549249 -0.2878816 -0.17707746 -0.22569412
000070 36 ba 35 3e 60 f5 28 bc 68 24 f5 3d 40 c4 e2 3d
       0.17746815 -0.010312408 0.119698346 0.11072588
000080 4c 3e a1 3d 44 b2 19 3e 80 08 84 bd 5e 4b 2d be
       0.0787321 0.15009409 -0.06446934 -0.16923282
000090 f4 44 a1 3d 4d 9f 98 3e 70 16 32 3e 84 de 61 be
       0.0787448 0.29809037 0.17391372 -0.22057539
0000a0 5e f1 7b 3e 65 37 90 3e 3c 41 31 3e c5 b4 85 be
       0.24603793 0.28167263 0.17310041 -0.2611448
0000b0 59 06 5a be 88 4c 92 3d b7 72 3d be 47 ad 88 3e
       -0.21291484 0.071435034 -0.18500791 0.266947
0000c0 30 a5 02 bd d0 7c 49 3d 00 26 f2 3c 4e 7c 5a be
       -0.031895816 0.049191296 0.029559135 -0.21336481
0000d0 62 8c 81 bd e2 a4 15 3e ae 5a 51 3e 50 b2 7c bd
       -0.06325604 0.14613679 0.20444748 -0.06169349
0000e0 46 a7 40 3e 59 d0 62 be 1b 9e 6d be 4a 84 59 be
       0.1881381 -0.22149791 -0.23204844 -0.2124187
0000f0 22 e1 ce bd 68 a5 7b bd e2 51 b8 bd 75 e0 88 be
       -0.101015344 -0.06143704 -0.08999993 -0.26733747
000100 90 1a f5 3d 97 40 8a 3e e0 42 90 3c dc d0 5b be
       0.11967957 0.27002403 0.017610013 -0.21466392
000110 56 d8 66 3e 72 0f 6d 3e f0 8c f7 3d 94 77 ef 3d
       0.22543463 0.23150423 0.120874286 0.116927296
000120 f4 fd 18 be e2 1e 50 3e 52 dd a4 bd d3 30 80 be
       -0.14940625 0.20324281 -0.08050026 -0.2503725
000130 a0 16 d4 bc b5 d4 98 3e fe 06 7c 3e 2e 97 eb bd
       -0.025889695 0.29849783 0.24612042 -0.115034446
000140 48 c7 ba bd 00 32 2a bb 06 ca 16 be 78 a1 1a bd
       -0.09120041 -0.0025969744 -0.14725503 -0.037751645
000150 c2 81 dc bd f2 4d 50 3e 89 35 80 be 98 bb 04 bd
       -0.10766937 0.20342234 -0.25040844 -0.032405466
000160 a2 21 33 3e 3f 30 8d 3e b8 b0 1a 3d 00 86 51 3b
       0.17493299 0.2757587 0.03776619 0.003197074
000170 70 b3 5e be e0 8c 5c bc c2 df 6b 3e 01 3a 97 3e
       -0.21748137 -0.013461322 0.23034576 0.2953644
000180 62 87 2f be 77 10 84 3e 63 bc 82 3e a6 c5 07 3e
       -0.17141488 0.25793812 0.25534353 0.1325899
000190 e0 12 a8 bc 24 92 f9 3d 90 54 b6 bc fc 94 21 be
       -0.020516813 0.12186077 -0.02225712 -0.1577949
0001a0 3b c2 71 be 06 be 6b be 68 45 6e 3d a6 9a 99 bd
       -0.2360925 -0.23021707 0.05817166 -0.075002
0001b0 1e 9b c3 bd b1 38 71 be 53 c3 85 3e 69 86 08 be
       -0.09551071 -0.23556782 0.26125583 -0.13332523
0001c0 b9 1e 00 be 55 3c 93 3e 1c 8a 28 3e 00 72 42 bc
       -0.1251172 0.28756967 0.16458935 -0.011868
0001d0 9e 14 54 3e a4 20 0e 3e 0d 7c 9f 3e 38 88 7a 3d
       0.2071099 0.13879639 0.3114933 0.061165065
0001e0 08 6e 38 3e d2 19 8b be 46 84 29 be 06 b6 45 be
       0.18010724 -0.27168137 -0.16554365 -0.19307718
0001f0 9c 74 19 3e b1 be bf 3d a4 70 67 be 02 80 1b 3e
       0.14985889 0.093625434 -0.22601563 0.1518555
000200 68 90 04 3d 65 8f 12 be 27 34 8f be 84 22 ef bd
       0.03236428 -0.14312513 -0.27969477 -0.11676505
000210 3b 9a 96 3e ab ab 5c be 96 d3 17 3e 84 44 cd 3d
       0.29414544 -0.21549861 0.14826807 0.10022834
000220 8a 96 7e 3e 7e 88 7d be 50 d2 eb bc 10 dd a1 bc
       0.24862114 -0.24759099 -0.028786808 -0.019758731
000230 0e 86 18 be df 1b a1 3e 00 01 4d be 8e 57 45 3e
       -0.14894888 0.31466576 -0.20019913 0.1927168
000240 3e b0 cc bd 30 c6 a3 bc 1f 5b 9e be da cd 29 3e
       -0.09994553 -0.019991964 -0.30928895 0.16582432
000250 74 6a 88 bd c3 d5 8e be f1 c6 90 3e 40 2a cf bb
       -0.06660929 -0.27897462 0.2827678 -0.0063221753
000260 f0 97 1f 3e 60 05 50 bc fd 38 81 3e 02 1d 41 3e
       0.15585303 -0.012696594 0.2523879 0.18858722
000270 5a 92 1f 3e 5e 7a 3f be 60 33 03 3d c8 d3 35 3d
       0.15583172 -0.18699023 0.032031417 0.044391423
000280 82 b8 81 be 9c 2e cf bd 10 f1 90 bd d7 ec 8f be
       -0.2533608 -0.10116312 -0.07077229 -0.28110382
000290 00 00 42 b7 80 ab 53 bb 79 ce 94 3e fa 65 32 3e
       -1.1563301e-05 -0.0032298267 0.29063776 0.17421713
0002a0 42 c8 04 3e cc 3e 9b be d1 c1 a0 be ce e7 7f 3e
       0.12967017 -0.30321348 -0.3139787 0.2499077
0002b0 60 ec 8d be c2 6c b4 bd a0 30 31 bd 94 8d 71 be
       -0.27719402 -0.088098064 -0.043259263 -0.23589164
0002c0 7a 05 9e be bc 83 b6 3d 50 2a ab 3c 1e cd 4b 3e
       -0.30863553 0.08911845 0.0208942 0.19902465
0002d0 c3 d2 27 be b0 33 16 3e b8 62 24 3e 20 de aa 3d
       -0.16388993 0.14668155 0.16053283 0.08343148
0002e0 96 13 4e be 89 f2 92 3e 40 04 cd bc fb d6 84 be
       -0.20124659 0.28700665 -0.02502644 -0.25945267
0002f0 9a 94 93 bd 00 60 08 be 60 87 0e 3d ba 51 71 3e
       -0.07206078 -0.13317871 0.034797072 0.23566332
000300 b6 56 63 3e a6 da 61 3e be 79 16 3e c6 5c 4a 3e
       0.22201046 0.22056064 0.14694878 0.19761953
000310 ba ee 0d 3e 68 5a 38 3e 23 9e 9f 3e a2 c1 09 be
       0.13860598 0.18003237 0.31175336 -0.13452771
000320 a6 0d 23 be 4a ac 86 be 52 c2 40 3e 4d fd 84 3e
       -0.15923175 -0.2630332 0.18824127 0.25974503
000330 90 03 87 3d 60 18 5e 3d 86 31 7b 3e 28 2a 79 bd
       0.06592476 0.054222465 0.2453061 -0.06083122
000340 86 7a 92 bd 97 b8 95 be 68 15 18 3e 14 f8 8b 3d
       -0.07152276 -0.29242393 0.14851916 0.068344265
000350 f5 80 22 be e0 2c 22 bc ca b5 4d 3e 44 8b 7e be
       -0.15869506 -0.009898394 0.20088878 -0.24857813
000360 a6 cc 55 3e 43 d0 3a be 48 10 2f 3e 98 5f a4 3d
       0.20878848 -0.18243508 0.17096055 0.080260456
000370 4c d9 bc bd ee 8a f0 3d 7a 33 83 3d af e0 0b 3d
       -0.092211336 0.11745249 0.06406303 0.03414982
000380 fe 0d 69 3e 8d d2 99 3d a9 04 4f be 5f d3 50 be
       0.22759244 0.075108625 -0.20216621 -0.20393132
000390 cb 09 43 be 68 c4 4f 3d 14 b6 a3 bd f8 36 75 bd
       -0.19046704 0.050724417 -0.07993713 -0.059866875
0003a0 c4 b5 84 3d 22 0a 6a 3e b0 46 33 bd a8 15 d7 3d
       0.064799815 0.22855428 -0.043768585 0.105021775
0003b0 88 03 74 be 64 d3 9a 3d 24 83 3f be 0d b9 94 3e
       -0.23829472 0.07559851 -0.1870237 0.29047433
0003c0 e2 f4 52 be 4f 90 84 be 81 db 97 be ac ca 95 be
       -0.20601228 -0.2589135 -0.29659656 -0.2925619
0003d0 ff 32 20 be a4 57 f2 bd b0 94 a2 3d 44 da ea 3d
       -0.15644453 -0.118331224 0.07938516 0.11467412
0003e0 f8 2a 7f be 74 46 33 3e 48 c1 8d be 88 5e ca 3d
       -0.24918735 0.17507344 -0.27686524 0.09881312
0003f0 13 40 93 be d7 6f 00 be be 3f 40 3e fe 8b 8f be
       -0.28759822 -0.12542664 0.18774316 -0.28036493

encoder.bias_ih_l0 f4 [40]
000000 6a c1 30 3e 86 f1 90 be c8 28 34 bd 8a f6 71 3e
       0.17261282 -0.28309268 -0.043984205 0.23629203
000010 7d 73 9f 3e 97 5f aa 3d 8a 91 5a 3e ae 33 8c be
       0.31142798 0.083190136 0.21344581 -0.27383178
000020 8d 12 8f 3e d4 84 92 be d6 ae 6e 3e dc 10 25 3e
       0.2794384 -0.28616965 0.23308882 0.16119713
000030 c7 e2 89 3e f0 66 e8 bc eb 3a 4b be f4 c0 9b be
       0.2693083 -0.028369397 -0.19846694 -0.3042065
000040 30 e2 0b 3d f8 5d 3e bd dc 37 8a be 42 2f a1 bd
       0.034151256 -0.046476334 -0.26995742 -0.07870342
000050 7a c8 d3 bd 2b 48 99 3e 4f 37 36 bd a9 57 94 3e
       -0.10340972 0.29937872 -0.04448634 0.2897313
000060 52 e1 04 3e 6a e2 0b 3e 30 1d 20 be a0 09 09 3d
       0.12976578 0.13660589 -0.15636134 0.033456445
000070 70 72 c9 bc f6 98 56 3e 78 34 91 3d 54 c1 f4 bd
       -0.0245907 0.20956787 0.07090086 -0.11950937
000080 e0 d8 68 3c 3c 5b 82 bd 42 59 3b be 4e 31 2d 3e
       0.014211863 -0.06365058 -0.18295768 0.1691334
000090 75 eb 8c 3e b5 92 2a be d3 7d 3f be a0 36 ad 3c
       0.2752339 -0.16657527 -0.18700342 0.021144211

encoder.bias_hh_l0 f4 [40]
000000 e0 b8 4c bc 0a d2 2d 3e e0 c0 dd bc 58 2b 0c bd
       -0.0124952495 0.16974655 -0.027069509 -0.034221023
000010 1e 7d 90 be d7 20 28 3d 4a d0 01 3e 2f 86 4a be
       -0.28220457 0.041046944 0.12677112 -0.1977775
000020 1d 5e 20 be 85 43 90 be 88 34 90 be 35 fb 83 3e
       -0.15660901 -0.28176513 -0.28165078 0.25777593
000030 03 6a 49 3e 6c 96 05 3e 30 c1 05 bd 66 e5 20 be
       0.19669347 0.13045663 -0.03265494 -0.15712509
000040 80 03 53 bd 60 92 4a bd 90 5c 15 bd c0 6e 75 be
       -0.05151701 -0.049456 -0.036465228 -0.23968029
000050 cf 5f 80 3e 7d ed 91 be 2d 7b 88 3e 20 2e 43 bd
       0.25073096 -0.28501502 0.26656476 -0.04765141
000060 48 4a 2a 3d 90 44 41 be c7 ed 80 be 4c 13 24 3e
       0.041574746 -0.18873811 -0.2518141 0.16022986
000070 42 b2 9f bd 56 db ba bd 7d 29 97 3e ce 39 60 3e
       -0.07797672 -0.09123866 0.2952384 0.2189705
000080 28 d4 5f bd 4a 1d 1a 3e 68 02 5f bd 9a b6 a7 bd
       -0.054645687 0.15050235 -0.054445654 -0.08189125
000090 5e ed 04 3e de 8d 6b be 70 55 99 3c 88 b7 38 3e
       0.12981173 -0.23003337 0.018717498 0.18038762

decoder.weight_ih_l0 f4 [20, 10]
000000 14 e5 13 3e 27 6f 70 c0 57 bb 5f 40 b1 56 68 40
       0.14442855 -3.7567842 3.4958093 3.6302912
000010 d0 80 d6 3e 7c 5e 86 3e 60 a9 b0 bc f8 5c 10 3e
       0.4189515 0.2624396 -0.02156514 0.14097965
000020 b8 46 27 3e a0 c1 84 3e c0 be 7b 3d 54 25 6c c0
       0.16335571 0.25928974 0.06146121 -3.6897783
000030 36 53 84 40 f9 9d 6d 40 4a c8 93 3e b8 27 88 be
       4.1351576 3.712767 0.28863746 -0.26592803
000040 ac 9a 6e 3e e0 83 db bd 28 e3 46 bd e6 48 8c be
       0.2330119 -0.107185125 -0.048556477 -0.27399367
000050 1a 3c b8 3e 4e 1c 82 c0 fb cb 64 40 96 82 81 40
       0.35983354 -4.065955 3.57495 4.0471907
000060 7c f0 1f 3e b9 90 8e 3e 06 13 1a be 10 03 84 be
       0.15619081 0.2784479 -0.1504632 -0.25783587
000070 c8 97 ea 3d ba 2b 86 3e 32 ba c5 3e 09 bd 79 c0
       0.11454731 0.26205236 0.38618618 -3.9021628
000080 ea 03 6e 40 0c c0 85 40 a5 ed ab be 1c 98 2d be
       3.718989 4.179693 -0.33579746 -0.16952556
000090 8c 1c 8e be fc 1c bf 3e 19 b0 71 be 1a 03 36 be
       -0.27756155 0.373268 -0.23602332 -0.1777462
0000a0 c0 1d 65 3d 59 84 60 c0 3f 1b 84 40 e8 fe 73 40
       0.055936575 -3.5080779 4.128326 3.8124332
0000b0 3e c9 8d 3e c4 65 e1 be 4c 78 c4 3e 2c 94 64 3e
       0.27692598 -0.44022954 0.3837303 0.22322148
0000c0 09 b5 c2 be a4 06 c3 bd fe 2a a7 be 3e ec ed bf
       -0.38028744 -0.09522751 -0.32649988 -1.858772
0000d0 81 93 dc 3f e0 5c c0 3f 5c 7e 5a be 1d f6 8d 3e
       1.7232515 1.5028343 -0.21337265 0.27726832
0000e0 2c 6f 6f 3e 3c 0b d2 3e f0 16 a6 3e 74 b8 ab be
       0.23382252 0.41024196 0.32439375 -0.33539164
0000f0 62 e7 9c be a9 0e 01 c0 4d 3c f3 3f bb a8 df 3f
       -0.3064528 -2.0165198 1.9002777 1.7473367
000100 80 80 ea bc 03 91 85 3e f4 5a 1e 3e 78 a2 17 3e
       -0.028625727 0.26087198 0.15464383 0.1480807
000110 d8 b3 62 bd 18 4c 02 be 5a e4 d6 3e 46 3a ea bf
       -0.055347294 -0.1272434 0.41971093 -1.8299034
000120 5d b8 e5 3f 2b cd 01 40 c2 06 99 3e 71 ee 5d 3e
       1.7946888 2.0281475 0.29887968 0.2167299
000130 48 6c dd be d5 4b 7d be 3b 88 e4 be dd b8 d7 be
       -0.43246675 -0.24735959 -0.44635186 -0.42133227
000140 fa 27 84 3e d3 a6 a7 bf 12 97 f8 3f c8 0e ca 3f
       0.2581175 -1.3097786 1.9421103 1.5785761
000150 e6 4c 93 3e f7 92 72 3e 40 ad 2d 3d f0 8a a0 be
       0.28769606 0.23688875 0.042401552 -0.31356
000160 9c e8 39 be cc 4c 30 be e8 38 7b bd 4d a9 ab bf
       -0.1815514 -0.17216796 -0.061333567 -1.3411041
000170 a2 9f ca 3f 38 e4 e5 3f e2 82 0a be 39 f9 d8 3c
       1.5829966 1.7960272 -0.1352649 0.026486026
000180 80 c9 24 bd 8a 1e 98 be fe 02 29 be e6 84 44 be
       -0.040231228 -0.297108 -0.16505048 -0.19191322
000190 b0 5e 06 be 3c 70 d4 bf 58 70 0e 40 50 4b e7 3f
       -0.13122058 -1.6596751 2.225607 1.8069859
0001a0 a0 c9 e6 bc 96 9f 0d 3c 48 92 54 3e 1e 56 9e 3e
       -0.028172314 0.008644005 0.20758927 0.30925077
0001b0 de 5e b0 3e 40 bb 41 3e f8 98 cf bd 6a 6a 09 40
       0.34447378 0.18919086 -0.10136598 2.14712
0001c0 33 a6 1b c0 5c 6e 16 c0 68 25 0d be d1 b9 e0 3e
       -2.432019 -2.3504858 -0.137838 0.43891767
0001d0 20 f5 df bd 2b c2 82 be a8 19 a3 be f8 7b 59 bd
       -0.10935426 -0.25538763 -0.31855512 -0.05309674
0001e0 e8 7c 08 be 87 24 eb 3f 4f ab ec bf ca 00 07 c0
       -0.13328898 1.8370522 -1.8489779 -2.1094232
0001f0 41 b1 d5 be e2 69 bb be e0 4c de 3d a8 5c cd be
       -0.41736796 -0.3660422 0.108545065 -0.40109754
000200 d1 0e 9e be 5c 19 89 be 70 ff dd 3d a4 36 00 40
       -0.3087068 -0.2677716 0.108397365 2.003335
000210 66 a5 0a c0 61 b6 d4 bf 5b 6b d7 be 9f c7 44 be
       -2.1663451 -1.6618158 -0.42074093 -0.19216774
000220 7c 10 b6 bd 2d 9d ad be 62 af be be 9e a9 a1 3e
       -0.08889863 -0.33908978 -0.3724318 0.3157472
000230 5f 5e b9 be 37 37 00 40 00 ca 07 c0 d8 48 03 c0
       -0.36204812 2.00337 -2.121704 -2.051321
000240 ac e7 a3 3e 40 cc 34 be 68 96 db 3d 2c 1e 2f be
       0.3201269 -0.1765604 0.10722047 -0.17101353
000250 4d b0 56 be e0 a2 a2 be 68 ee 5e be df d9 89 c0
       -0.20965691 -0.3176489 -0.21770632 -4.3078456
000260 6b 10 6e 40 9e ac 6f 40 6c f1 0f be 43 b1 e6 bd
       3.719752 3.7449107 -0.14056939 -0.11264279
000270 60 8d ce be 18 18 2d 3d b2 bb 89 be 7b 21 bc be
       -0.40342236 0.042259306 -0.26901013 -0.36744294
000280 54 b5 95 3e a1 e6 6d c0 91 cd 6b 40 87 d3 8b 40
       0.29239905 -3.7172015 3.6844218 4.369571
000290 49 e3 87 be 1a f8 83 3e d6 dc c9 be 88 f1 ad be
       -0.26540592 0.25775224 -0.39426297 -0.33973336
0002a0 a4 d7 c7 be 6c c7 67 3e 00 ae 0f ba bf e8 69 c0
       -0.39031708 0.22634667 -0.0005480945 -3.6548307
0002b0 66 e5 87 40 55 20 80 40 2d 2c 91 be e9 24 a8 be
       4.2467527 4.003947 -0.28354016 -0.3284066
0002c0 90 5a 48 3e 0a 5a 98 3e 28 92 83 3e b8 12 b4 be
       0.19565797 0.29756194 0.25697446 -0.3517053
0002d0 78 9b 43 3e 0a 55 75 c0 a6 6f 80 40 e0 f6 69 40
       0.19102275 -3.8333154 4.013629 3.655693
0002e0 5e 1e 20 be 83 32 8b 3e 80 f4 d1 3d b4 01 be be
       -0.15636584 0.27186975 0.10251713 -0.37110674
0002f0 20 57 04 bd e4 5a 46 3e f2 61 db 3e 50 9e 81 c0
       -0.03230965 0.1937061 0.42848164 -4.0505753
000300 15 3e 63 40 30 ef 6d 40 99 06 57 be 6f 4e af 3e
       3.5506642 3.7177238 -0.2099861 0.34239528
000310 b6 e9 c3 3e 90 17 cf 3e 75 32 a4 be da 37 9e 3e
       0.38264245 0.40447664 -0.32069746 0.30901986

decoder.weight_hh_l0 f4 [20, 5]
000000 7b 3f 0a 3f 51 90 49 bf 17 ed 74 bf 32 cc 70 bf
       0.54003114 -0.78735834 -0.9567427 -0.9406158
000010 f4 82 1f bf d0 22 25 3f 89 77 7a bf 55 e4 49 bf
       -0.62309194 0.64506245 -0.97838646 -0.7886403
000020 01 5b 56 bf 6e 75 6a be 9d 13 92 3f cf 86 9a bf
       -0.8373261 -0.22896358 1.1412235 -1.207239
000030 33 1d 82 bf 36 2e 08 bf 98 fc a4 be f9 48 a8 3f
       -1.0165161 -0.5319551 -0.32223964 1.314727
000040 21 1a 70 bf eb f5 4e bf 45 5d 36 bf 0e ee 48 be
       -0.9378987 -0.8084399 -0.7123607 -0.1962206
000050 1e 87 50 3f f9 f1 89 bf ae 91 84 bf 42 70 0d bf
       0.8145617 -1.0776969 -1.0356958 -0.55249417
000060 43 8c 47 bf a9 0d 2d 40 f9 01 15 c0 05 3c 28 c0
       -0.779484 2.7039587 -2.3282454 -2.6286633
000070 cb ba f6 bf c9 27 ce bf d8 7c 16 40 cd 16 ee bf
       -1.9275755 -1.6105891 2.3513699 -1.8600708
000080 c1 bc fb bf e9 30 00 c0 22 8f 00 c0 4d b2 12 40
       -1.9666978 -2.0029852 -2.0087361 2.2921326
000090 7f 1f 00 c0 2f a7 17 c0 ce 06 01 c0 df de c4 bf
       -2.0019224 -2.369579 -2.0160403 -1.5380515
0000a0 3b 14 14 40 ed 30 15 c0 98 c9 17 c0 d5 80 f8 bf
       2.3137348 -2.3311112 -2.3716793 -1.9414316
0000b0 50 4b fc bf 59 fd 2d 40 8b 0f 36 c0 d6 63 0c c0
       -1.9710484 2.718588 -2.8446987 -2.1935935
0000c0 d1 f0 ed bf 59 50 02 c0 a0 61 e8 3e 64 3d 81 bd
       -1.8589116 -2.036154 0.45386982 -0.063105375
0000d0 6b 4b 8d be 17 33 db bd e7 23 19 bf 1d 85 b6 be
       -0.27596602 -0.10703104 -0.5982041 -0.35648432
0000e0 24 15 0f 3f 27 58 f1 3e be dc c7 3e f3 03 f7 bd
       0.55891633 0.47137567 0.390356 -0.120613
0000f0 6a 1d 97 bd af d5 09 3f 4f ca a0 3e fb bb c8 3e
       -0.07378657 0.5384168 0.3140435 0.39205918
000100 95 84 ac bd d0 e1 be be 22 ac 0d 3f ab c1 da 3c
       -0.084237255 -0.37281656 0.5534078 0.026703676
000110 17 a7 fc 3e 73 33 f7 3e 1a ad e6 be e0 66 44 3e
       0.4934623 0.4828144 -0.4505394 0.19179869
000120 da 4a 6f 3e ea 24 46 3e fa 28 a6 3e 05 27 c8 3f
       0.23368397 0.19350019 0.32453138 1.5636908
000130 54 bf b0 bf b5 95 75 bf 39 69 a7 bf fa c9 6e bf
       -1.3808389 -0.9593156 -1.3078986 -0.9327694
000140 9e 09 b4 3f a2 b4 a5 bf f3 de 82 bf 2b 94 a9 bf
       1.4065435 -1.294575 -1.0224289 -1.3248342
000150 4d 9b 90 bf b5 18 88 3f ad 5b c0 bf 70 41 78 bf
       -1.1297394 1.063254 -1.5027977 -0.9697485
000160 f2 0e d1 bf 0a 14 80 bf 3f 74 ba 3f f7 99 ab bf
       -1.6332686 -1.0006115 1.4566725 -1.3406361
000170 b5 a4 bc bf 84 ec 4a bf 57 f0 77 bf 5e b8 53 3f
       -1.4737765 -0.79267144 -0.96851104 0.82703197
000180 59 87 ce bf d9 6d c5 bf b6 06 7d bf da 36 af bf
       -1.6135055 -1.5424148 -0.98838365 -1.3688614

decoder.bias_ih_l0 f4 [20]
000000 de db 84 40 f1 2d 71 40 4a 82 83 40 45 87 74 40
       4.1518393 3.768429 4.1096544 3.8207562
000010 c9 e4 74 40 93 e3 cd 3f 85 de ef 3f ac 79 e5 3f
       3.826464 1.6085075 1.8739783 1.7927756
000020 cf 1b ef 3f 0b 1b eb 3f d3 1d 20 40 b3 4c d1 bf
       1.8680362 1.8367628 2.5018203 -1.6351532
000030 34 bf 17 c0 6f 3f 1b c0 33 51 f6 bf be bb 6f 40
       -2.371045 -2.4257467 -1.924353 3.7458339
000040 cf 2a 76 40 0f 61 74 40 d4 06 66 40 0a 30 80 40
       3.8463628 3.818424 3.5941668 4.005864

decoder.bias_hh_l0 f4 [20]
000000 ac 7c 86 40 78 c9 82 40 50 76 68 40 59 63 75 40
       4.2027187 4.0870934 3.6322212 3.8341887
000010 dc 13 83 40 00 4f cd 3f 05 29 c6 3f 09 42 cf 3f
       4.0961742 1.6039734 1.5481268 1.6192027
000020 b9 cf e5 3f b8 fb b1 3f f3 64 0b 40 a4 8c 06 c0
       1.7954017 1.3904943 2.1780365 -2.102334
000030 e0 b7 0e c0 da 79 09 c0 84 04 19 c0 ed 8a 7b 40
       -2.2299728 -2.1480622 -2.3909006 3.9303544
000040 e3 30 75 40 10 6d 70 40 6f 35 89 40 33 84 80 40
       3.8311088 3.7566566 4.2877727 4.0161376

linear.weight f4 [5, 5]
000000 9b a9 67 3d 94 8a 11 bf 2e 1c aa bd 02 c7 00 3d
       0.056558233 -0.5685208 -0.08306156 0.03143979
000010 dc 2d ca be cb 0c a2 41 31 1f a1 c1 47 51 a1 c1
       -0.39488113 20.256247 -20.14023 -20.164686
000020 83 57 a2 c1 fd e5 a2 c1 bb 52 a1 41 bd c7 9f c1
       -20.29273 -20.362299 20.165396 -19.972528
000030 e7 21 a0 c1 54 49 a2 c1 3f 6a a2 c1 3d ae 8d 3d
       -20.016554 -20.285805 -20.301878 0.06917999
000040 69 f5 9d 3e ae fa 85 be 7c aa 9a 3e 02 e1 52 be
       0.30851296 -0.26167816 0.30208194 -0.20593646
000050 7c 25 21 be 2e ea 22 be bd 7e 55 3e bd d5 f4 be
       -0.15736955 -0.15909645 0.20849128 -0.4781932
000060 ed 0a 36 be
       -0.17777605

linear.bias f4 [5]
000000 b6 ff 30 3f 0b 55 a1 41 e8 2b 9d 41 df ee 49 3e
       0.69140184 20.166525 19.646439 0.19720028
000010 cb e3 3b 3e
       0.18348615
